chatbot-deployment/data.pth (torch, 15914 bytes, 6 tensors)

l1.weight f4 [8, 254]
1.1843363 -0.30679145 0.35461208 1.9206101 -0.6183647 0.07984544 1.3604925 0.53924763
1.0377778 -0.059267994 0.05087019 0.52765733 1.1505045 0.6520721 -0.266942 -0.3169754
-0.16112289 0.47151774 0.700874 0.4930125 -0.053704992 -0.28838512 -0.47680783 0.9867267
0.46296588 -0.35649544 -0.32029897 -0.48643622 -0.402158 -0.26228142 0.6605574 1.0996668
-0.047011238 -0.3378843 0.9408594 -0.19494669 -0.39798716 1.2726337 0.4327295 1.1611583
0.6962167 -0.21302313 1.0225416 -0.9381673 0.57413864 -0.022216596 0.48976618 1.1690524
-0.3213873 -0.24709512 0.9647019 1.2470073 1.2831842 0.102433175 0.48769313 -0.78101695
0.49872065 0.32813174 0.8443576 0.9138717 0.87664056 1.0808213 1.1997832 0.8193935
0.0010897934 -0.17541578 -0.73102736 0.5297165 0.12804739 1.4598527 -0.13451551 0.9079918
0.053629078 0.9442046 0.8290821 -0.3069012 0.43257985 -1.0862018 0.7370853 -0.3426775
1.1412623 0.42600158 0.7861786 0.55983 -0.00078475004 0.4011749 -0.04519626 0.6625611
-0.30078086 0.020379247 0.7265175 0.43524465 -0.44018176 0.7951891 0.45688397 -0.47331956
0.7561018 0.67631036 0.5209708 0.99348325 0.5339436 0.79416114 -0.73501295 0.55332726
-0.33383128 -0.42702985 0.6072923 -0.40545648 0.10085542 0.56479114 -0.20018034 -0.28629902
0.7566805 0.9043108 -0.12847762 0.75803655 -0.55334526 -0.3127903 0.80113167 0.7313678
-0.37750036 0.091970146 -0.060062613 1.2718496 1.2247697 -0.1438439 -0.41849476 1.2757807
0.13177216 -0.4242918 0.13291359 -0.23519781 0.8470261 0.7725074 1.2281282 0.9103538
1.1010932 -0.4594727 -0.20882751 0.987534 -0.047135476 -0.44928172 0.47099665 -0.44385865
-0.50027066 0.001489073 -0.26852366 0.5054241 -0.21895888 0.41355595 -0.18716276 1.70798
0.0082258815 -0.22874066 -0.95310867 -0.11220856 -0.35716054 0.7863452 0.712841 -0.48657656
1.1351763 -0.4653394 0.92381996 0.1342821 -0.28482634 0.67703205 1.0160655 1.0016179
-0.3219652 -0.46419194 -0.59464777 0.98767626 -0.3647184 0.5933905 0.3447605 -0.45871565
-0.50190264 -0.1405926 -0.42311406 0.022557626 0.7026889 0.8286699 0.5686613 0.60500467
0.5237906 0.4269064 0.4785832 0.07738873 -0.07235933 0.3904474 -0.37713906 -0.26909184
0.053225946 0.16016617 -0.30673966 -0.84634787 0.97521126 -0.021783363 1.4961827 -0.9408951
0.17836277 0.72819966 0.039844513 -0.46877515 -0.71089405 0.8382253 1.004502 -0.2636525
0.07293491 1.8189238 0.82704294 0.0007301797 0.5533386 0.8201581 -0.50560266 -0.30641845
0.9368464 -0.49392155 -0.50368935 0.55462354 0.48454955 1.3111538 0.012901049 0.9231889
0.6426292 0.4304188 -0.1038044 -0.3226541 0.47512814 -0.31319508 0.32645056 0.4184587
-0.004799416 0.4955811 0.64270943 0.33636037 0.47645956 -0.14754778 -0.49782136 1.222002
-0.063603416 -0.21053872 -0.75689864 -1.2610688 0.2868764 0.9408439 -0.13879973 -0.9308194
-0.47638482 0.90785784 -0.35980326 -0.74456304 0.30016232 0.012217843 0.06958446 0.49980843
00000000: 5598 973f c513 9dbe b78f b53e 8dd6 f53f
00000010: 264d 1ebf 0286 a33d 9e24 ae3f 220c 0a3f
00000020: e7d5 843f ffc2 72bd 435d 503d 8d14 073f
00000030: bb43 933f 32ee 263f 9fac 88be 9a4a a2be
00000040: 66fd 24be c66a f13e 7a6c 333f 226c fc3e
00000050: c4f9 5bbd 37a7 93be 2820 f4be 1f9a 7c3f
00000060: dd09 ed3e 9286 b6be 3afe a3be 2b0e f9be
00000070: a7e7 cdbe c049 86be 4a1a 293f e2c1 8c3f
00000080: db8e 40bd 2cff acbe 29dc 703f 1ba0 47be
00000090: f9c4 cbbe a9e5 a23f b98e dd3e d6a0 943f
000000a0: 423b 323f bc22 5abe a5e2 823f bb2b 70bf
000000b0: c0fa 123f 94ff b5bc a2c2 fa3e 82a3 953f
000000c0: e08c a4be 8106 7dbe b4f6 763f ef9d 9f3f
000000d0: 613f a43f 7cc8 d13d eab2 f93e baf0 47bf
000000e0: 5058 ff3e e200 a83e d227 583f 7ff3 693f
000000f0: 846b 603f 5a58 8a3f 7f92 993f c6c3 513f
00000100: 66d7 8e3a 32a0 33be 9c24 3bbf 809b 073f
00000110: db1e 033e 74dc ba3f 6fbe 09be 2772 683f
00000120: 2aaa 5b3d 65b7 713f b93e 543f 2722 9dbe
00000130: 1b7b dd3e a908 8bbf 9fb1 3c3f 6d73 afbe
00000140: e214 923f e11c da3e 0043 493f 0551 0f3f
00000150: afb7 4dba cc66 cd3e b71f 39bd 9b9d 293f
00000160: f3ff 99be 61f2 a63c 0dfd 393f 63d8 de3e
00000170: 815f e1be 8391 4b3f b2ec e93e f156 f2be
00000180: e38f 413f ad22 2d3f 585e 053f eb54 7e3f
00000190: 87b0 083f 254e 4b3f cf29 3cbf dba6 0d3f
000001a0: efeb aabe a8a3 dabe 8277 1b3f fe97 cfbe
000001b0: 498d ce3d 2796 103f 13fc 4cbe c995 92be
000001c0: d0b5 413f ea80 673f a38f 03be af0e 423f
000001d0: 09a8 0dbf 0d26 a0be f716 4d3f ec3a 3b3f
000001e0: ba47 c1be d85a bc3d 3704 76bd f8cb a23f
000001f0: 41c5 9c3f d14b 13be f244 d6be c84c a33f
00000200: 48ef 063e c63c d9be 801a 083e b2d7 70be
00000210: b4d6 583f 0cc3 453f 4e33 9d3f f20c 693f
00000220: 9ff0 8c3f 0140 ebbe e1d6 55be 07cf 7c3f
00000230: 2111 41bd 4108 e6be 7926 f13e 7141 e3be
00000240: bd11 00bf 002d c33a ef7b 89be 7963 013f
00000250: c236 60be 9bbd d33e 98a7 3fbe 179f da3f
00000260: d9c5 063c fe3a 6abe eefe 73bf 9acd e5bd
00000270: bfdd b6be eb4d 493f bf7c 363f 9020 f9be
00000280: 754d 913f f740 eebe 777f 6c3f 3f81 093e
00000290: c2d4 91be f951 2d3f 6f0e 823f 0435 803f
000002a0: 9fd8 a4be 91aa edbe d63a 18bf 5ad8 7c3f
000002b0: 5fbc babe 71e8 173f 7384 b03e c7dc eabe
000002c0: b17c 00bf 82f7 0fbe 68a2 d8be c5ca b83c
000002d0: 6be3 333f b623 543f c993 113f 96e1 1a3f
000002e0: 2417 063f 7a93 da3e db08 f53e fc7d 9e3d
000002f0: 2131 94bd b9e8 c73e 5f18 c1be 68c6 89be
00000300: 7303 5a3d 9a02 243e fb0c 9dbe 41aa 58bf
00000310: 72a7 793f 0673 b2bc ea82 bf3f 80de 70bf
00000320: bba4 363e 4b6b 3a3f 0034 233d 4c03 f0be
00000330: 27fd 35bf ef95 563f 8693 803f 76fd 86be
00000340: e65e 953d 7fd2 e83f 16b9 533f 8869 3f3a
00000350: 99a7 0d3f e2f5 513f 2d6f 01bf e1e2 9cbe
00000360: 2ad5 6f3f 49e3 fcbe c9f1 00bf cffb 0d3f
00000370: e116 f83e e3d3 a73f ec5e 533c 1c56 6c3f
00000380: 5983 243f da5f dc3e 6797 d4bd eb32 a5be
00000390: ff43 f33e 1b5b a0be 8724 a73e 3840 d63e
000003a0: 6b44 9dbb cebc fd3e 9b88 243f 6d37 ac3e
000003b0: 82f2 f33e c416 17be 71e2 febe 906a 9c3f
000003c0: 8242 82bd 7697 57be 1cc4 41bf b46a a1bf
000003d0: 77e1 923e 25db 703f 8421 0ebe 2e4a 6ebf
000003e0: b6e8 f3be 5f69 683f 2238 b8be af9b 3ebf
000003f0: e0ae 993e 592d 483c 4c82 8e3d e4e6 ff3e

l1.bias f4 [8]
1.0390899 0.7200784 0.5399896 0.937177 0.76906395 0.99167657 1.1357927 0.68854445
00000000: e600 853f 0f57 383f c23c 0a3f d5ea 6f3f
00000010: 60e1 443f 84de 7d3f a861 913f 7344 303f

l2.weight f4 [8, 8]
-0.5237739 0.6058061 0.6651136 1.4369174 0.48544562 0.093118094 -1.378185 1.6796681
1.37636 -1.4215506 -1.4796073 1.2665006 0.117537566 1.6337208 0.1997529 0.41982204
1.3304521 1.6444916 -0.41119134 -0.42355984 1.2963825 1.231453 1.3942642 -1.4613789
-0.39522374 0.66628057 2.1385496 1.3193613 -0.13470203 -0.42061213 0.8642222 -0.9700194
-0.34610465 2.1128364 0.7602569 -1.0678723 1.250362 0.45796993 1.3724251 0.6831423
-0.8782021 0.835268 -0.16121553 0.74250144 -0.16945009 1.8066696 -0.21257669 1.1475135
0.47969586 -1.3982314 0.30456817 -0.3349677 1.5298952 0.3994475 1.2293016 1.0871038
1.7119738 -0.6737792 1.2911859 1.6445636 -1.2430246 -0.603325 0.6905837 -0.95158935
00000000: 0c16 06bf 1c16 1b3f e344 2a3f e9ec b73f
00000010: 548c f83e b3b4 be3d 5e68 b0bf 5dff d63f
00000020: 912c b03f 5ff5 b5bf c663 bdbf b11c a23f
00000030: 89b7 f03d c31d d13f 068c 4c3e eaf2 d63e
00000040: 414c aa3f b37e d23f ac87 d2be d6dc d8be
00000050: ddef a53f 40a0 9d3f 4077 b23f 770e bbbf
00000060: c45a cabe 5d91 2a3f ffdd 0840 d5e0 a83f
00000070: 54ef 09be 795a d7be ab3d 5d3f 3153 78bf
00000080: a134 b1be b638 0740 32a0 423f 0ab0 88bf
00000090: dd0b a03f 097b ea3e a0ab af3f 6ae2 2e3f
000000a0: dad1 60bf 20d4 553f af15 25be 9314 3e3f
000000b0: 5384 2dbe f340 e73f b4ad 59be b9e1 923f
000000c0: b29a f53e 3ff9 b2bf 5cf0 9b3e e380 abbe
000000d0: 9bd3 c33f 6284 cc3e c159 9d3f 3826 8b3f
000000e0: f521 db3f cb7c 2cbf 9445 a53f 0f81 d23f
000000f0: 6e1b 9fbf 8273 1abf 18ca 303f 5c9b 73bf

l2.bias f4 [8]
0.6100941 0.65864664 0.78189754 0.27167743 -0.09736783 0.49112007 -0.0927906 0.38292938
00000000: 202f 1c3f 119d 283f 702a 483f 4e19 8b3e
00000010: c968 c7bd 1774 fb3e 0009 bebd 520f c43e

l3.weight f4 [32, 8]
-0.023885816 -1.4015645 -1.1606613 -0.37461412 0.50825524 -0.8520084 0.49791074 -1.1100379
-2.3472888 0.70214266 0.3237988 -1.6582221 -3.4942684 -1.7648529 -0.41873634 0.6348752
-2.1296504 -1.7588944 0.14419062 0.54715943 -0.03035928 -2.203042 -1.5964397 0.6290066
-3.1939828 0.23289499 0.26402897 -1.4512678 0.01384852 -3.2277129 0.6707929 -0.58845305
-0.36221638 0.6263664 -0.2648291 -1.3853981 -0.9460704 0.2599065 0.24189055 -1.8437499
-1.4463848 -0.23393652 0.39728132 -0.26094162 0.010536784 -0.12029967 -0.3409526 -0.6186331
-0.21556735 0.06913757 -0.14132506 -0.6385057 -0.6671125 0.24198875 -0.8675789 -0.21499291
-2.4938586 0.09611168 0.24484366 0.34304804 -0.8500262 -0.20200227 -2.2760332 0.6953062
-0.95097727 -3.4920988 0.17172885 0.37260127 0.43399128 0.018300954 -0.042408235 -3.277857
0.02122755 0.11957828 0.3599989 -0.072841085 -2.2873654 -3.2638521 -2.7562313 0.89836484
-1.5213803 0.5153292 0.116411194 -6.4576406 -0.16558209 0.08049994 0.34890974 -0.6673798
0.30338258 -2.1795712 0.2535391 0.106648535 0.15178128 0.26247397 -3.949638 -2.0100462
-3.1018448 -3.3224785 0.37393355 0.23461667 0.58784056 -1.7964543 0.42601994 -1.0429018
-1.2146775 -0.093388446 -0.20151202 -0.834586 -0.2411128 -0.29416996 0.43306297 -0.068353966
-2.679701 -0.8758383 -0.364247 0.3298653 -0.33941203 -3.379424 0.50722873 0.29994062
-0.046401102 -0.61512554 -2.7396264 0.40960875 -1.051206 -0.5920119 -0.21097964 0.11925616
-6.375021 0.21264675 0.4052739 -0.65554976 -0.25927997 -0.9625356 -0.09234545 0.13653825
-0.45442513 0.56805056 -0.9352018 -2.3924136 -4.027175 -0.85714316 0.2812484 0.598276
-1.0642226 -2.35276 -0.51954013 0.39402646 -0.051158633 -1.2044568 0.06956314 0.11917744
-0.13246365 -0.4234226 -1.2893409 -2.458845 0.58928484 0.7366457 -2.405149 -3.8818305
-0.006490267 -1.3284642 -1.4838815 0.83402854 -2.6519523 -0.5819993 -2.1437197 0.54919446
-0.20454577 -1.9973961 -0.23053576 0.46240965 -0.22058016 -0.8938221 -3.1507885 0.44100964
0.023736889 0.5287413 -2.3598008 0.17579117 -2.1988328 -0.94725704 -2.5456252 0.6867202
0.78039944 -1.3352808 -2.2129593 0.20765662 -0.7171078 -0.30568144 -3.2224045 -0.100225836
-0.59248596 -3.3008485 -0.42697462 0.41754642 0.0028283324 0.2951726 -0.8904062 -0.64024955
-1.4990996 0.6864519 -0.52177334 0.5111948 -3.5349438 -0.10815733 -0.90712935 0.34663334
-0.99740845 -0.111654 -0.59931725 0.47697985 -1.3470668 -2.416316 -0.29125854 0.64552087
-0.205006 -1.179918 -2.560937 0.3291191 0.13660976 0.53180724 -1.0253742 -1.2639239
0.019894702 0.45841497 -3.16704 -0.8119112 -3.504477 0.4472207 -0.99637395 -0.044218797
0.6623456 0.008521511 -2.8888063 -0.745201 -0.8470085 0.3870856 -3.609677 -1.6585116
-1.7504774 -0.42145905 0.73249966 -0.27841622 0.56151044 -0.5465478 0.038090263 -4.6883283
-0.22749536 -2.1896033 0.094515525 -2.3725882 0.75844234 0.27856383 -0.47930247 -3.0134485
00000000: 30ac c3bc 7766 b3bf 8d90 94bf 6ccd bfbe
00000010: 041d 023f 391d 5abf 28ee fe3e b915 8ebf
00000020: fb39 16c0 9fbf 333f f5c8 a53e 9f40 d4bf
00000030: 18a2 5fc0 b3e6 e1bf 9c64 d6be 2e87 223f
00000040: 314c 08c0 7423 e1bf b5a6 133e a412 0c3f
00000050: 06b4 f8bc a4fe 0cc0 2358 ccbf 9406 213f
00000060: 376a 4cc0 067c 6e3e ce2e 873e 25c3 b9bf
00000070: e7e4 623c d992 4ec0 15b9 2b3f dca4 16bf
00000080: 6d74 b9be 8c59 203f ae97 87be ba54 b1bf
00000090: ab31 72bf 7712 853e 28b2 773e ffff ebbf
000000a0: 2323 b9bf 0e8d 6fbe 7568 cb3e 249a 85be
000000b0: 7aa2 2c3c ac5f f6bd 5791 aebe bd5e 1ebf
000000c0: b0bd 5cbe 0098 8d3d 84b7 10be 1c75 23bf
000000d0: e3c7 2abf e6cb 773e a719 5ebf 1a27 5cbe
000000e0: 619b 1fc0 33d6 c43d 4cb8 7a3e fea3 af3e
000000f0: 519b 59bf afd9 4ebe 87aa 11c0 96ff 313f
00000100: 3f73 73bf 8c7e 5fc0 b0d9 2f3e 98c5 be3e
00000110: 1b34 de3e e2eb 953c 42b4 2dbd 69c8 51c0
00000120: 66e5 ad3c 75e5 f43d c751 b83e b52d 95bd
00000130: 3264 12c0 f4e2 50c0 1866 30c0 3dfb 653f
00000140: 97bc c2bf 9dec 033f fe68 ee3d fea4 cec0
00000150: 5a8e 29be 27dd a43d 4ca4 b23e 67d9 2abf
00000160: f654 9b3e 187e 0bc0 e0cf 813e 8c6a da3d
00000170: 8d6c 1b3e fd62 863e dec6 7cc0 99a4 00c0
00000180: a084 46c0 7da3 54c0 3874 bf3e 5a3f 703e
00000190: b87c 163f 37f2 e5bf 491f da3e ce7d 85bf
000001a0: 8d7a 9bbf 7142 bfbd 2b59 4ebe 6ea7 55bf
000001b0: 46e6 76be 729d 96be 6eba dd3e 2afd 8bbd
000001c0: 3980 2bc0 f036 60bf 957e babe 1be4 a83e
000001d0: 6ac7 adbe 7c48 58c0 bed9 013f d191 993e
000001e0: 150f 3ebd de78 1dbf 0a56 2fc0 3db8 d13e
000001f0: eb8d 86bf 188e 17bf 0c0b 58be 933c f43d
00000200: 2c00 ccc0 12c0 593e 1080 cf3e 1cd2 27bf
00000210: 58c0 84be bc68 76bf 9c1f bdbd afd0 0b3e
00000220: 69aa e8be c36b 113f 6369 6fbf 4e1d 19c0
00000230: 9ede 80c0 bc6d 5bbf caff 8f3e 9e28 193f
00000240: 7238 88bf 9f93 16c0 9500 05bf d6bd c93e
00000250: b78b 51bd a42b 9abf 1f77 8e3d 4d13 f43d
00000260: 8da4 07be d9ca d8be 1f09 a5bf b75d 1dc0
00000270: 5fdb 163f d094 3c3f f6ed 19c0 e96f 78c0
00000280: 4eac d4bb 1d0b aabf d4ef bdbf e582 553f
00000290: 96b9 29c0 e8fd 14bf b432 09c0 0298 0c3f
000002a0: 7274 51be adaa ffbf 9111 6cbe f5c0 ec3e
000002b0: c4df 61be 86d1 64bf 85a6 49c0 04cc e13e
000002c0: dd73 c23c 975b 073f fa06 17c0 9a02 343e
000002d0: adb9 0cc0 707f 72bf 86eb 22c0 e5cc 2f3f
000002e0: 42c8 473f 7bea aabf 20a1 0dc0 f0a3 543e
000002f0: 6094 37bf 4782 9cbe e03b 4ec0 3443 cdbd
00000300: 29ad 17bf 1a41 53c0 6b9c dabe a5c8 d53e
00000310: 8b5b 393b dd20 973e a9f1 63bf 65e7 23bf
00000320: 7fe2 bfbf 50bb 2f3f f092 05bf aadd 023f
00000330: 853c 62c0 9781 ddbd a139 68bf ed79 b13e
00000340: 2956 7fbf daaa e4bd db6c 19bf b436 f43e
00000350: af6c acbf eca4 1ac0 d71f 95be db40 253f
00000360: 18ed 51be 8e07 97bf 64e6 23c0 4c82 a83e
00000370: 6ee3 0b3e 8524 083f 763f 83bf 42c8 a1bf
00000380: 37fa a23c 5eb5 ea3e c9b0 4ac0 6ad9 4fbf
00000390: 5a49 60c0 1dfa e43e 5d12 7fbf c51e 35bd
000003a0: 7b8f 293f cf9d 0b3c 34e2 38c0 7ec5 3ebf
000003b0: 8dd5 58bf 1530 c63e f304 67c0 1c4a d4bf
000003c0: a50f e0bf 7bc9 d7be 1985 3b3f 928c 8ebe
000003d0: 26bf 0f3f 8eea 0bbf 8904 1c3d c906 96c0
000003e0: 8bf4 68be 7622 0cc0 5b91 c13d 7cd8 17c0
000003f0: 4729 423f eb9f 8e3e 2267 f5be 57dc 40c0

l3.bias f4 [32]
0.19318055 0.3583573 -0.09544357 -0.36107865 0.54801905 -0.20893842 0.6678896 -0.06325391
-0.009135716 0.1616246 0.08290962 0.44947553 0.31751892 -0.48474038 -0.5694138 0.3028252
-0.38191772 -0.025800236 -0.125463 -0.3057947 -0.070700824 -0.017719109 -0.065250486 0.08790451
-0.4536162 -0.80901533 -0.34836507 -0.35597306 -0.1581061 0.16302949 0.22783598 0.26012874
00000000: 1fd1 453e 9c7a b73e eb77 c3bd 4ddf b8be
00000010: fa4a 0c3f f4f3 55be d0fa 2a3f 448b 81bd
00000020: f8ad 15bc eb80 253e 85cc a93d a821 e63e
00000030: d791 a23e e42f f8be 1ac5 11bf e80b 9b3e
00000040: b88a c3be 045b d3bc 5f79 00be 1f91 9cbe
00000050: 98cb 90bd aa27 91bc 0ca2 85bd 4807 b43d
00000060: 6240 e8be a11b 4fbf e85c b2be 1a42 b6be
00000070: 91e6 21be 34f1 263e d64d 693e 982f 853e
